----------------------------------------------------------------
        Layer (type)               Output Shape         Param #
================================================================
            Conv1d-1             [-1, 64, 5000]           5,376
       BatchNorm1d-2             [-1, 64, 5000]             128
              ReLU-3             [-1, 64, 5000]               0
         MaxPool2d-4             [-1, 64, 5000]               0
            Conv1d-5             [-1, 64, 5000]         135,168
       BatchNorm1d-6             [-1, 64, 5000]             128
              ReLU-7             [-1, 64, 5000]               0
            Conv1d-8             [-1, 64, 5000]         135,168
       BatchNorm1d-9             [-1, 64, 5000]             128
           Conv1d-10             [-1, 64, 5000]           2,112
      BatchNorm1d-11             [-1, 64, 5000]             128
             ReLU-12             [-1, 64, 5000]               0
             ReLU-13             [-1, 64, 5000]               0
       BasicBlock-14             [-1, 64, 5000]               0
           Conv1d-15             [-1, 64, 5000]         135,168
      BatchNorm1d-16             [-1, 64, 5000]             128
             ReLU-17             [-1, 64, 5000]               0
           Conv1d-18             [-1, 64, 5000]         135,168
      BatchNorm1d-19             [-1, 64, 5000]             128
           Conv1d-20             [-1, 64, 5000]           2,112
      BatchNorm1d-21             [-1, 64, 5000]             128
             ReLU-22             [-1, 64, 5000]               0
             ReLU-23             [-1, 64, 5000]               0
       BasicBlock-24             [-1, 64, 5000]               0
           Conv1d-25            [-1, 128, 2500]         270,336
      BatchNorm1d-26            [-1, 128, 2500]             256
             ReLU-27            [-1, 128, 2500]               0
           Conv1d-28            [-1, 128, 2500]         540,672
      BatchNorm1d-29            [-1, 128, 2500]             256
           Conv1d-30            [-1, 128, 2500]           4,224
      BatchNorm1d-31            [-1, 128, 2500]             256
             ReLU-32            [-1, 128, 2500]               0
             ReLU-33            [-1, 128, 2500]               0
       BasicBlock-34            [-1, 128, 2500]               0
           Conv1d-35            [-1, 128, 2500]         540,672
      BatchNorm1d-36            [-1, 128, 2500]             256
             ReLU-37            [-1, 128, 2500]               0
           Conv1d-38            [-1, 128, 2500]         540,672
      BatchNorm1d-39            [-1, 128, 2500]             256
           Conv1d-40            [-1, 128, 2500]           4,224
      BatchNorm1d-41            [-1, 128, 2500]             256
             ReLU-42            [-1, 128, 2500]               0
             ReLU-43            [-1, 128, 2500]               0
       BasicBlock-44            [-1, 128, 2500]               0
           Conv1d-45            [-1, 256, 1250]       1,081,344
      BatchNorm1d-46            [-1, 256, 1250]             512
             ReLU-47            [-1, 256, 1250]               0
           Conv1d-48            [-1, 256, 1250]       2,162,688
      BatchNorm1d-49            [-1, 256, 1250]             512
           Conv1d-50            [-1, 256, 1250]           8,448
      BatchNorm1d-51            [-1, 256, 1250]             512
             ReLU-52            [-1, 256, 1250]               0
             ReLU-53            [-1, 256, 1250]               0
       BasicBlock-54            [-1, 256, 1250]               0
           Conv1d-55            [-1, 256, 1250]       2,162,688
      BatchNorm1d-56            [-1, 256, 1250]             512
             ReLU-57            [-1, 256, 1250]               0
           Conv1d-58            [-1, 256, 1250]       2,162,688
      BatchNorm1d-59            [-1, 256, 1250]             512
           Conv1d-60            [-1, 256, 1250]           8,448
      BatchNorm1d-61            [-1, 256, 1250]             512
             ReLU-62            [-1, 256, 1250]               0
             ReLU-63            [-1, 256, 1250]               0
       BasicBlock-64            [-1, 256, 1250]               0
           Conv1d-65             [-1, 512, 625]       4,325,376
      BatchNorm1d-66             [-1, 512, 625]           1,024
             ReLU-67             [-1, 512, 625]               0
           Conv1d-68             [-1, 512, 625]       8,650,752
      BatchNorm1d-69             [-1, 512, 625]           1,024
           Conv1d-70             [-1, 512, 625]          16,896
      BatchNorm1d-71             [-1, 512, 625]           1,024
             ReLU-72             [-1, 512, 625]               0
             ReLU-73             [-1, 512, 625]               0
       BasicBlock-74             [-1, 512, 625]               0
           Conv1d-75             [-1, 512, 625]       8,650,752
      BatchNorm1d-76             [-1, 512, 625]           1,024
             ReLU-77             [-1, 512, 625]               0
           Conv1d-78             [-1, 512, 625]       8,650,752
      BatchNorm1d-79             [-1, 512, 625]           1,024
           Conv1d-80             [-1, 512, 625]          16,896
      BatchNorm1d-81             [-1, 512, 625]           1,024
             ReLU-82             [-1, 512, 625]               0
             ReLU-83             [-1, 512, 625]               0
       BasicBlock-84             [-1, 512, 625]               0
           Linear-85                  [-1, 180]          92,160
          Dropout-86                  [-1, 180]               0
           Linear-87                    [-1, 9]           1,620
          Sigmoid-88                    [-1, 9]               0
================================================================
Total params: 40,454,228
Trainable params: 40,454,228
Non-trainable params: 0
----------------------------------------------------------------
Input size (MB): 0.46
Forward/backward pass size (MB): 205.08
Params size (MB): 154.32
Estimated Total Size (MB): 359.86
----------------------------------------------------------------

Epoch number:  0
…
